Simulator.pth (torch, 263904 bytes, 4 tensors)

hidden_layers.0.weight f4 [3848, 12]
000000 c1 b5 49 be f3 49 88 3d e7 46 2f 3e c8 ed 68 3e
       -0.1969824 0.0665473 0.17116891 0.22746956
000010 58 09 d9 3d 0e 62 86 be 97 54 43 be 6f 24 c3 3d
       0.10597485 -0.26246685 -0.19075237 0.095284335
000020 13 37 2e 3e 01 49 48 be 89 a4 34 3e a9 cf 28 3d
       0.17013197 -0.19559099 0.1764089 0.041213665
000030 50 a8 65 be 67 4a 81 bd 4a bd e5 3b 07 fe ab bd
       -0.22427487 -0.06313019 0.0070110904 -0.08398061
000040 b8 a3 bd be c9 0a 7a 3e 63 d5 31 3e ad 5a 00 3e
       -0.3703897 0.24418177 0.17366557 0.1253459
000050 f2 74 f9 bd 2b 38 c8 3d 68 48 29 be 64 ed 02 be
       -0.12180509 0.09776338 -0.16531527 -0.1278587
000060 ea c1 30 be c3 a1 72 3e 20 95 51 be af e1 34 be
       -0.17261472 0.2369452 -0.20467043 -0.17664216
000070 70 d2 a7 be 16 72 65 3e c9 2a 89 3d 6e 53 a8 bd
       -0.3277774 0.22406802 0.06697614 -0.08219038
000080 90 ee 82 39 04 f3 7f bd 84 2c 53 be 2d 11 b0 3c
       0.00024973275 -0.062487617 -0.2062245 0.021492565
000090 55 da 75 be ff d7 7f 3e 6b 07 b0 3d bb 11 5f 3e
       -0.24009068 0.2498474 0.08595165 0.21784107
0000a0 a8 08 b6 bd 6d d4 09 3e 92 a6 75 be 5e 2a b2 bd
       -0.0888837 0.1345994 -0.23989323 -0.08699487
0000b0 c8 d1 22 3c 61 b7 7d 3d 6b 19 78 3e 59 ea 7e be
       0.009937711 0.061942462 0.24228446 -0.24894084
0000c0 c4 c0 10 be c2 3a ff 3d ec 89 e5 bd 94 f5 d5 bd
       -0.14136034 0.12462379 -0.11207947 -0.10447231
0000d0 09 94 08 3e 12 5d 87 be e6 dd f3 bd 82 76 03 3d
       0.13337721 -0.26438195 -0.11907558 0.03209544
0000e0 96 fa f7 3c 42 92 6d 3d b1 d0 06 3d d1 db 3e 3d
       0.030270856 0.05800081 0.032913867 0.046596352
0000f0 68 1a 89 3e b7 62 d0 3d 7e da 83 be aa e1 17 be
       0.2677796 0.10175078 -0.25752634 -0.14832178
000100 fd ff ce bd a9 c9 61 3e 8f 33 18 3d 5d bb 66 3e
       -0.1010742 0.22049583 0.037158545 0.22532411
000110 fa 39 14 3d 18 c5 24 3e 6e 2e a6 be ce 99 c0 3c
       0.036188103 0.1609081 -0.32457298 0.02351084
000120 a7 27 70 be 59 b1 4d be ce a2 a0 3d 02 0c b5 bd
       -0.23452626 -0.20087184 0.078435525 -0.08840181
000130 d9 3c c0 3c 6c 16 f3 bd d7 21 77 bd 8a 91 5d be
       0.023466514 -0.11869511 -0.060335007 -0.2163755
000140 0a 62 63 3d 20 56 44 bd 2a b6 55 be 42 65 ef bd
       0.05551342 -0.047933698 -0.20870271 -0.11689235
000150 3e 1b ac be 6d d5 79 3e 6b e3 32 bc 21 5f 2a be
       -0.33614534 0.24397822 -0.0109184785 -0.16637851
000160 20 93 68 be 63 ea 5c 3e a9 33 20 be c8 8c 97 3e
       -0.22712374 0.21573786 -0.15644707 0.29599595
000170 ea 5a 88 be f3 b1 48 3e 94 b3 80 3e e3 f9 dc bc
       -0.26631862 0.19599132 0.25137007 -0.026974624
000180 34 44 66 bd fc 1b e9 3d d3 05 8e be 4e c2 32 bb
       -0.056217387 0.11382291 -0.2773882 -0.002727646
000190 d3 ca 6e 3e 0e 71 f3 bd c1 47 02 be 67 ed 46 3d
       0.23319559 -0.11886798 -0.12722684 0.04856625
0001a0 59 5d ee bd 5f 23 fe bd 77 9c 9a 3d 0e 8f ba 3d
       -0.116388984 -0.1240909 0.075493746 0.09109317
0001b0 d9 e9 7e 3d 0d 39 64 be c9 91 81 be 90 65 3e 3e
       0.062234733 -0.22287388 -0.25306538 0.1859343
0001c0 5c 88 98 be 83 81 8c 3e 53 2a 9d 3e 3c 67 39 be
       -0.29791534 0.2744256 0.30696353 -0.18105787
0001d0 d6 7a 4b be ec 58 7c 3d cc 40 56 3e 06 c9 3d 3e
       -0.19871077 0.06160824 0.20923156 0.18533716
0001e0 dc d6 2b 3d b8 68 f5 bc 79 4a 48 3e b5 4b d7 3b
       0.041952953 -0.02995716 0.19559659 0.0065703043
0001f0 09 ff ad bd 68 3c 8b be 5f d6 79 be 6d 85 54 be
       -0.0849591 -0.27194524 -0.24398182 -0.20754023
000200 8a eb 1c 3e f4 da e6 bc e3 8e db bc 31 0e 42 3c
       0.15324226 -0.028180577 -0.026801532 0.011844204
000210 91 55 59 3e 25 2c 96 3e 49 15 3a be e6 01 23 be
       0.21224047 0.29330555 -0.18172182 -0.15918693
000220 59 85 95 bd 8a 0d 72 be 6d f7 36 3e 4e 3c 6a 3e
       -0.07300825 -0.23637977 0.17867823 0.22874567
000230 43 af b9 bd d8 21 44 3e fd ea 1c be 4b c0 82 3e
       -0.09066632 0.19153535 -0.15324016 0.25537333
000240 fe 29 e7 3d d3 68 2e be 6b 1f 34 3e 53 ef 24 3c
       0.11287306 -0.17032175 0.1759011 0.010066825
000250 67 1d 92 3d 0a a6 35 be a5 d7 30 3d 5f 2f 8a be
       0.07134514 -0.1773912 0.043174405 -0.26989266
000260 9d 6f a8 3d 62 d2 67 3e c5 01 ae ba 65 61 99 be
       0.082244135 0.22638848 -0.0013275674 -0.2995712
000270 d5 1f a5 3d bc 93 ec bc dc 7b 2b bd dc 71 8c bd
       0.08062712 -0.028879039 -0.04186617 -0.068576545
000280 20 d9 54 3e 8d 59 8c 3e 59 35 48 bc 01 bb 59 be
       0.20785952 0.27412072 -0.01221975 -0.21262743
000290 d0 74 89 3e 61 2c 8d be df 01 3e 3e b2 76 08 be
       0.26846933 -0.2757292 0.18555401 -0.13326529
0002a0 3e 88 68 bd 2c d8 a6 3d 56 c7 5a be ad b7 54 3d
       -0.056770556 0.081467 -0.21365103 0.05193298
0002b0 03 47 62 be 1b 9c 3d be 03 54 98 3d e7 9a b1 3c
       -0.22097401 -0.18516581 0.07437899 0.021680309
0002c0 26 ea 11 bc a4 2d 61 3e d7 70 16 3d 47 18 16 be
       -0.008905923 0.21990067 0.036728706 -0.14657699
0002d0 40 ce 30 3e 4c bb 38 3e a2 b6 e6 bd 30 ff dd 3c
       0.17266178 0.18040198 -0.11265303 0.027099222
0002e0 25 7d c6 bc 14 f6 58 be 36 a4 8c 3c 18 29 f9 bd
       -0.024229595 -0.21187621 0.017168146 -0.12166041
0002f0 c0 e5 70 be b7 d9 82 be c9 43 f0 3d be 22 96 3d
       -0.23525143 -0.25556728 0.11731679 0.07330845
000300 19 83 b7 bd b9 f3 59 bd 3f 87 20 be 30 a1 4d 3e
       -0.08960552 -0.053210948 -0.15676592 0.2008102
000310 30 89 ed be 2b 32 a8 bd 80 f6 6d bd 23 fd 7a 3e
       -0.46393728 -0.08212694 -0.05809641 0.24510626
000320 09 77 d4 3d 3c ae 2e be cf 57 a6 be 1b 64 fa 3d
       0.10374267 -0.17058653 -0.32488868 0.12226125
000330 42 e4 95 bc 37 5c c2 bd 86 c6 88 3e 4f 90 1c 3e
       -0.018297318 -0.09490245 0.2671396 0.15289424
000340 4d 54 01 3e f8 66 a2 3d 9d ca 70 3e 43 ef f9 3d
       0.12629814 0.07929796 0.23514791 0.12203839
000350 14 66 2f 3d 17 50 89 bd c7 c7 49 be 01 f8 0d 3e
       0.04282196 -0.06704729 -0.19705115 0.13864137
000360 8a ea 5e be 82 7a 92 3e 3b e7 04 3e 62 69 82 be
       -0.21769157 0.2860909 0.12978832 -0.25471026
000370 fe 03 b5 bc 9a 7d 45 3b 3a 84 2c be 48 3b 81 3e
       -0.02209663 0.0030134679 -0.16847315 0.2524054
000380 bd 01 5c be 31 5c aa 3d ac e6 17 3d aa 0f 95 3e
       -0.21485038 0.08318365 0.03708522 0.29113513
000390 c5 8f 7b be bd 4a 69 3e e7 93 a5 3d 13 33 f9 bd
       -0.24566562 0.22782417 0.08084851 -0.12167945
0003a0 52 31 b6 be 2c f4 e9 bd d2 7a 2b be a3 c4 fd bd
       -0.35584503 -0.11423525 -0.16746071 -0.12391021
0003b0 20 3e 98 3d 3c b5 ca bc 85 d8 8c 3e a7 f9 8a 3e
       0.074337244 -0.024744622 0.2750894 0.27143595
0003c0 41 2f 01 be 06 b6 24 bd 89 fe 51 3e d0 b3 40 be
       -0.12615682 -0.040212654 0.20507254 -0.18818593
0003d0 38 11 a9 be ca f8 9a bd 67 ee 18 3e 4e fb 73 be
       -0.3302095 -0.07566984 0.14934693 -0.23826334
0003e0 0c 20 55 3e 9e 3e 66 be 40 c7 7c be 28 ca 80 3e
       0.20813006 -0.22484824 -0.24685383 0.25154233
0003f0 94 f9 a6 bc d5 3f 50 be 83 3d 15 be a2 05 c1 3d
       -0.02038268 -0.2033685 -0.14574246 0.094249025

hidden_layers.0.bias f4 [3848]
000000 bd 1e 92 3e a4 3b 0d be 49 4b 95 bd d3 39 59 3e
       0.28539076 -0.13792282 -0.0728975 0.21213464
000010 d9 aa 54 3e 3f f1 91 bb 6d 1f 65 be 0b 02 9a 3d
       0.20768298 -0.0044538076 -0.22375269 0.07519921
000020 c5 97 05 be 59 74 12 3d ba 1b e5 bd eb c7 1e bc
       -0.13046177 0.03575549 -0.11186929 -0.009691219
000030 bb 02 8c be ba 46 06 3e ea e2 95 3d ab 97 70 be
       -0.27345833 0.13112918 0.07318671 -0.23495357
000040 6f 34 32 be 49 77 80 3e a8 12 34 3e dc 5f 43 3e
       -0.17402814 0.25091007 0.17585242 0.19079536
000050 38 d0 3c be 3c 41 00 3e c0 b0 90 ba 58 f2 b1 3d
       -0.18438804 0.12524885 -0.0011039004 0.086888015
000060 58 3e 9c be 9e a1 42 3e 48 7a 8e be d6 9c 9f bd
       -0.30516315 0.19006965 -0.27827668 -0.07793586
000070 78 a4 ba bd 06 0c 57 be 88 ac 23 3e 1c b7 f0 3d
       -0.09113401 -0.2100068 0.15983784 0.11753675
000080 ab 5a 0d 3e 33 d6 4e be 7c bb 9f be 79 a7 7e be
       0.13804118 -0.20198898 -0.31197727 -0.24868573
000090 a9 0b ae bd 1e 68 47 be 65 af 15 be c0 c5 62 3e
       -0.08498318 -0.19473311 -0.14617689 0.22145748
0000a0 21 35 43 be f8 01 80 bd 2c cc 16 3e 5f 3a a1 be
       -0.19063236 -0.062503755 0.14726323 -0.31489846
0000b0 1e 04 13 3e db 96 c5 3d c1 ee e5 3d 9c f3 0e 3e
       0.1435704 0.09647914 0.11227179 0.13960117
0000c0 79 de 38 3d 77 a7 53 3e 48 75 84 3e 43 4c 6a bd
       0.04513404 0.20669352 0.25870728 -0.057201635
0000d0 2e cb 50 3e 28 5f 05 be c8 e8 85 be 58 17 22 3e
       0.20390007 -0.1302458 -0.2615416 0.15829217
0000e0 aa 16 8a bd c1 59 0f be 62 ff 98 be 12 38 39 3e
       -0.06742604 -0.13999082 -0.29882342 0.18087795
0000f0 2a d9 e0 bc 5c ad 7a 3e ce cb 12 3e c6 dd 57 bd
       -0.027447302 0.24480194 0.14335558 -0.052701734
000100 d5 e1 95 be fe 7d 23 be 1f 73 9e 3d b2 4b 8f 3e
       -0.2927386 -0.15966031 0.07736801 0.27987438
000110 58 43 46 3e 08 d5 36 bd 71 ed 94 3b 64 c9 86 bd
       0.19361627 -0.044636756 0.004544907 -0.06581381
000120 42 30 26 3e c4 64 2c be 69 9c 95 be 0f a2 41 3e
       0.16229346 -0.16835314 -0.29220894 0.18909477
000130 bc f1 fa 3d 61 bf 37 3e 5b 9b 38 be a7 5b 20 bd
       0.122531384 0.17944099 -0.18028013 -0.039149906
000140 cd 2a 63 be d9 88 75 3d eb f4 44 be df 28 d0 3c
       -0.22184296 0.05994496 -0.19234054 0.025410114
000150 0e ac 57 3e da ff 17 3d ad 3e ea bd fb 1a 34 be
       0.21061727 0.037109233 -0.11437736 -0.17588417
000160 3c 6b 42 bc 75 b6 1c ba 15 4c 96 be 70 49 93 3d
       -0.011866387 -0.0005978116 -0.2935492 0.071917415
000170 73 01 75 3d 5e 50 d4 bc c5 1f 3d 3e 58 dd 78 be
       0.059815835 -0.025917228 0.1846915 -0.24303186
000180 43 46 89 be b5 30 70 3e 02 00 6f 3c 80 99 59 3e
       -0.26811418 0.2345608 0.014587404 0.21249962
000190 46 02 bd 3d 20 ad ef bc a1 a4 99 be 4e 56 8d 3e
       0.09228949 -0.029257357 -0.30008414 0.27604908
0001a0 9e 93 0e be 0f 72 58 bd 57 0e 85 be e1 c1 3a 3e
       -0.13923499 -0.05284315 -0.25987503 0.18238021
0001b0 90 15 a9 bc f6 8e f0 bd fa b9 03 3e 19 ec 30 bc
       -0.020640165 -0.11746018 0.12863913 -0.010798478
0001c0 de ce 75 bc a8 e6 55 3e 93 7c a0 bd ca c3 af 3d
       -0.015002934 0.2088877 -0.07836261 0.08582266
0001d0 a9 a5 a2 be 4b fe ac 3c 8f c4 86 bd 74 9b 5d be
       -0.31767014 0.02111735 -0.06580459 -0.21641332
0001e0 c1 ab 98 bd dc ed e1 3d 7b 51 8f bd 79 b3 47 3e
       -0.074546345 0.11031696 -0.06997963 0.19502057
0001f0 7d a0 4e be 7c f7 5d 3d ed a9 99 be d6 2b 51 3e
       -0.20178409 0.054191098 -0.30012456 0.20426878
000200 09 71 36 be 56 40 8e be 3a a5 b9 3c 27 39 9f be
       -0.17816557 -0.2778346 0.022661794 -0.3109829
000210 fb 29 1c bd ba 3e b4 bc 97 25 32 3e e2 d4 28 bd
       -0.038125973 -0.022002567 0.17397152 -0.041218646
000220 a6 3a ed 3d 3e 92 e7 3d 96 fe 97 3d 48 30 52 3e
       0.11583452 0.1130719 0.07421605 0.2052623
000230 de 14 47 be cb e7 3a 3e 96 27 eb bc 66 50 89 be
       -0.19441554 0.18252485 -0.0287054 -0.26819152
000240 06 7a 69 bd 8c 46 90 3e c3 00 22 3d 06 86 96 3d
       -0.057001136 0.28178823 0.039551508 0.07349782
000250 50 ae 1d be fb c4 16 be 48 de 94 bd a6 6c 19 3e
       -0.15398526 -0.1472358 -0.07268959 0.14982852
000260 ed 10 43 be 8f 52 49 3c 1b 18 f2 bd 1d 3d a6 bd
       -0.19049425 0.01228775 -0.11821004 -0.08117125
000270 25 ba 1d bd f0 33 e6 3c 4f d9 9f be 2e a8 48 be
       -0.0385076 0.028100938 -0.3122048 -0.19595405
000280 de 2f b4 be 1c 64 6f be d5 4e c2 be a2 34 62 3e
       -0.3519277 -0.23378032 -0.3795077 0.2209039
000290 c2 a8 88 be ca c0 ba be 2c 36 90 be 6f 53 81 3d
       -0.26691252 -0.3647521 -0.2816633 0.06314742
0002a0 1a 7c 4e 3e 3f 1f 4f be 2d c7 9a bc 16 6a 60 3e
       0.20164528 -0.20226763 -0.018893803 0.21915469
0002b0 a7 fd c1 bd e2 f3 92 be 29 e5 b7 3d 93 75 88 be
       -0.094722085 -0.28701693 0.08979256 -0.26652202
0002c0 a9 b3 72 bd cc 2f 40 3e 8e 0e 50 3d 8a 12 d7 3d
       -0.05925337 0.18768233 0.05079513 0.10501583
0002d0 00 7a c2 3d d9 08 46 be 07 d4 51 be 52 ce 3d bd
       0.09495926 -0.19339313 -0.20491038 -0.04633934
0002e0 52 3c 46 3d 53 08 71 3e bd aa 29 be 46 d3 92 be
       0.04839737 0.23538332 -0.16569038 -0.28676814
0002f0 9b 3f 54 3c cf 10 5c bd ad 4a 3e 3e 8c f6 70 bb
       0.012954618 -0.053726967 0.18583174 -0.0036768047
000300 8e 80 3c 3e 85 01 75 3d 41 9b 7d 3e 6b 92 99 3e
       0.18408415 0.059815902 0.24766256 0.2999452
000310 51 16 cb 3d 29 64 a0 3d 90 b6 c8 3b c1 eb 1d be
       0.09916366 0.07831604 0.006125279 -0.15421964
000320 7d 81 68 bd b9 0f 90 be 81 a9 7a bc 21 af 8c be
       -0.056764115 -0.28136995 -0.015299202 -0.27477363
000330 1f 73 4a 3e 2d 70 13 3e cc d8 ce 3d f7 ec 80 be
       0.19770478 0.1439826 0.100999445 -0.2518079
000340 a2 3a 59 be f0 f5 5d be 2c 90 16 be 50 c9 8e bd
       -0.21213773 -0.21675849 -0.14703435 -0.06971991
000350 12 e7 1e bb 08 2d e3 3d 48 cd c0 3d 4f 79 82 be
       -0.0024246615 0.110925734 0.09414154 -0.25483176
000360 5d 68 f2 bd d5 d0 08 be 43 c4 4c 3e 19 b6 b8 be
       -0.11836312 -0.13360913 0.19996743 -0.3607643
000370 1a 10 16 be 62 3d f2 3d 2c 63 41 be 07 9c 69 bd
       -0.1465458 0.11828114 -0.18885487 -0.057033565
000380 48 41 17 be cd d6 9b bd d3 58 1c 3e 69 dc 9a bd
       -0.14770997 -0.076093294 0.15268259 -0.07561571
000390 13 61 32 be 98 5a e3 3d 76 00 c0 bb 03 e9 30 be
       -0.17419843 0.11101264 -0.00585943 -0.17276387
0003a0 37 89 29 3e 45 c3 ad bc 6a e0 d6 bc cd c3 0d bd
       0.1655625 -0.021211276 -0.026230056 -0.03461056
0003b0 26 23 26 3d 06 d7 bb bd 04 2a 9a 3e a1 01 76 3d
       0.040560864 -0.09171872 0.3011018 0.060060147
0003c0 df 36 19 3e be 37 08 3d 5e bf a2 3d 5e ba 6a bd
       0.14962338 0.033256285 0.07946657 -0.05730664
0003d0 dd cd a3 3d 34 e6 92 be bc ca 16 be 3d f6 88 3e
       0.0799825 -0.28691256 -0.14725775 0.26750365
0003e0 62 9c 85 be 47 44 00 3e 56 fd 97 3e 0b 77 5b 3e
       -0.26095873 0.12526046 0.29685467 0.2143213
0003f0 b3 08 7d be 25 93 a6 3e 58 d9 12 3e 57 0f c1 3c
       -0.2471035 0.32534137 0.14340723 0.023566885

hidden_layers.1.weight f4 [4, 3848]
000000 78 27 83 bc 18 f8 a7 bb 05 02 27 3d 2a 76 90 bc
       -0.016010031 -0.0051260106 0.04077341 -0.01763447
000010 71 0f 92 3a 9e 8f 66 3b f0 eb d3 3b b0 27 67 3b
       0.0011143518 0.0035180817 0.006467335 0.0035271458
000020 61 bf 33 bc a7 cc 1e 3c 64 19 4a bb ec c3 8a bb
       -0.010970921 0.009692348 -0.0030837888 -0.0042347815
000030 23 53 60 3c 7a f5 09 3c 87 67 01 bc 19 12 c3 3b
       0.013691696 0.008420343 -0.007898218 0.005953085
000040 1d af 3b 3d 39 0c 04 bc 2d 27 83 3c 4a 17 7f bb
       0.045821298 -0.008059555 0.016009891 -0.0038923793
000050 a6 f4 96 3c 92 4e 65 3c 5d 58 23 bc 0c 9f 48 3c
       0.018427204 0.013995783 -0.009969798 0.012244951
000060 89 4d ae bc 9d 79 1f 3c 29 78 89 bb 39 e4 fe 3b
       -0.021277206 0.009733585 -0.0041952324 0.007778671
000070 ae 30 0b bd 2b 20 d5 bb c8 33 a9 3a f7 2a 28 bc
       -0.03398197 -0.006504079 0.0012909109 -0.01026415
000080 53 f1 af bc 81 a8 cb 3c 9b 4b aa 3c 0a ac 10 bc
       -0.021477377 0.024860622 0.020788005 -0.00883008
000090 34 57 2f bb 01 18 86 3c 15 69 98 3c 00 a8 bd bc
       -0.0026754858 0.016368868 0.018604795 -0.023151398
0000a0 06 a9 57 3d b5 1a 9c 3b e1 22 80 3c 82 9e a5 bc
       0.052651428 0.004763926 0.015641632 -0.020217184
0000b0 a4 c5 46 bb 12 1d 1b bc cb e7 08 3b 1c 78 f7 ba
       -0.0030330205 -0.00946738 0.0020890113 -0.00188804
0000c0 f1 01 45 3c 54 51 79 ba 37 03 26 3b e9 8c e2 3b
       0.012024389 -0.0009510715 0.0025331506 0.0069137705
0000d0 83 95 3d 3c 3d 7c f6 bb 96 9f 42 bc ea 83 68 bc
       0.011571291 -0.0075221346 -0.011878869 -0.014191607
0000e0 00 86 cb 3b 9e b0 0f bc 78 67 05 3d e1 d9 f5 bc
       0.0062110424 -0.008770136 0.03256938 -0.03001112
0000f0 18 f0 98 3c 67 60 8f 3c c0 57 ef 3b 0c 02 81 bc
       0.018669173 0.017502023 0.007304162 -0.015748046
000100 bd bd 60 3b a1 91 52 bb c1 1c 55 bb 29 2f 09 3c
       0.003429278 -0.0032130259 -0.003251836 0.00837306
000110 63 ee 98 3c 00 84 18 3b c0 26 96 38 23 39 be bc
       0.01866836 0.0023272038 7.159775e-05 -0.023220604
000120 03 97 b0 bb d1 30 a0 3b d9 11 e9 bb d0 74 35 bb
       -0.0053890957 0.004888632 -0.0071127233 -0.0027688034
000130 00 06 8c 3c 49 b0 10 bc 82 13 b0 bb e7 04 60 3b
       0.017092705 -0.008831092 -0.0053734193 0.003418261
000140 8a e0 9b 3c f6 d9 34 bb 6e a1 b2 ba ce 4d 75 3c
       0.019027967 -0.0027595735 -0.0013628432 0.014972163
000150 88 50 8d 3a e8 3e 29 3c 0e ae 27 3c 5d ea 14 bd
       0.0010781446 0.010329939 0.010234369 -0.03635632
000160 41 0f b4 3b 35 5a b2 3b 78 44 6b 3c 26 a0 40 3c
       0.0054949825 0.0054428824 0.014359586 0.011756932
000170 3a a8 06 bb 2d bd 84 3c fe 6e 0e bc bc 4a 64 ba
       -0.0020547048 0.016203487 -0.008693455 -0.0008708646
000180 fe 84 a1 bc 7b 91 a2 3b e0 8c 09 bb e9 a2 1e ba
       -0.019716736 0.0049611903 -0.002098851 -0.0006051497
000190 68 d1 93 bc 4f 47 9b bc ef 47 fd bb 06 de 8f bc
       -0.018044189 -0.018954901 -0.0077295224 -0.017561924
0001a0 01 77 8e 3c 45 e5 87 bc 4b 4d 1b 3c 3f 04 32 3c
       0.01739073 -0.016588816 0.009478877 0.01086527
0001b0 b9 48 89 bc 72 68 3a 3b f1 50 21 bc af 62 d0 3c
       -0.01675831 0.0028443602 -0.009845958 0.025437681
0001c0 a0 5c c6 3b 54 9a 8d bb 5a 02 b4 39 51 cb f2 3a
       0.006053522 -0.004321376 0.00034334027 0.0018523728
0001d0 3c b9 42 3c 2f e9 0a bd 4c df dc b7 10 30 4b ba
       0.011884984 -0.033913787 -2.6330024e-05 -0.00077509973
0001e0 37 d6 b2 bc 59 03 47 bc 6a 2d e2 bb 4e b9 2c 3c
       -0.021830661 -0.012146794 -0.0069023864 0.010542227
0001f0 c7 d2 dc 39 ed 68 92 ba c1 98 d8 b9 51 27 0b bd
       0.0004211871 -0.0011170186 -0.0004131254 -0.033973042
000200 fb 11 2f 3c 4e c9 39 ba 9f 07 26 bd 3e de b3 3c
       0.010685439 -0.00070871867 -0.04053461 0.02195656
000210 3a 23 d4 b9 1e 0e 2a bc 2d 18 c1 bb 65 33 db bc
       -0.00040462037 -0.010379342 -0.0058927746 -0.026757905
000220 a4 4b 56 3c 02 e6 87 ba a7 a1 26 3c c8 9f 06 bc
       0.013079558 -0.001036823 0.010170377 -0.008216806
000230 92 97 36 3c 99 ef b2 3a 95 bb 34 3c 18 2e 9a 3c
       0.011144536 0.0013651728 0.011031051 0.018820807
000240 e7 f7 a1 bc 95 6a 53 3b 39 99 0f 3c f0 77 cc 3b
       -0.01977153 0.0032259573 0.0087645585 0.0062398836
000250 4a 43 2c ba 07 44 7f 3c e6 c0 55 ba 5d 9c 90 bb
       -0.0006571306 0.015580184 -0.0008154049 -0.004413171
000260 b9 0e f9 bb ac 3b 29 bd 29 d0 9c 3b 32 7c d3 3c
       -0.007600632 -0.041316673 0.004785557 0.025816057
000270 ef 31 a3 bc 92 3c 5c 3c 58 1d d7 bb 0f 06 45 3c
       -0.019921271 0.013442175 -0.0065647773 0.01202537
000280 df 8f 46 3c a6 ef 1a 3c d9 5c 1c 3a 30 a6 8a b9
       0.0121192625 0.009456551 0.0005964763 -0.0002644523
000290 78 dc ff 3a 96 e2 83 bd ed f8 a7 bc 41 7e 3b bc
       0.0019520661 -0.06439702 -0.02050444 -0.0114436755
0002a0 bd e1 7a 3c 21 4f 7d bc 04 f7 68 bb 74 7b 26 3c
       0.015312609 -0.01546076 -0.0035547623 0.010161269
0002b0 81 d4 2e bb 3e d2 1a bc c2 9e dd 3c bc 1f e1 3a
       -0.0026676955 -0.00944954 0.02705324 0.0017175595
0002c0 e1 59 b8 3b 17 b5 32 bc 49 cc 9a 3c e5 78 f7 bc
       0.005625949 -0.010907433 0.018896239 -0.030209014
0002d0 75 79 11 3c ae c2 95 bb b7 34 f0 bc db 79 04 bc
       0.008879055 -0.004570327 -0.029322011 -0.008085693
0002e0 8a a5 1f 3b 81 6e 9c bc c9 f3 d8 3c 84 aa 67 39
       0.0024360144 -0.019095661 0.026483433 0.00022093399
0002f0 fb 80 cf 3b ee 62 a5 3b e8 69 3a bb 78 64 44 b9
       0.0063325143 0.0050471937 -0.0028444473 -0.00018729444
000300 64 94 a8 3a 44 51 ba ba 6b 6f 87 bc f3 2f ab 3c
       0.0012861607 -0.0014214893 -0.01653262 0.020896887
000310 ed 14 0b 3c 48 ec d6 bb 49 95 a8 3c d9 2a a0 bb
       0.008488876 -0.0065589286 0.020578997 -0.0048879203
000320 45 83 b8 ba 74 a0 49 3b 33 00 8d bc bd f4 05 3a
       -0.0014077207 0.0030765804 -0.017212009 0.0005110016
000330 59 1c 9d 3b 48 ae 1e 3a c5 d6 62 3c 1e a0 6f 3c
       0.004794639 0.00060531916 0.01384515 0.014625577
000340 2d 2f 62 3c a1 fd e8 3c b5 24 bb bc 6c 03 fe 3a
       0.013805193 0.028441252 -0.022844652 0.0019379682
000350 da aa da 3c 64 f6 2a 3a 8b ab 07 3c f6 4a 3c bc
       0.026692796 0.00065217004 0.008280645 -0.011492481
000360 5b ea 43 b9 6c 3e 8d bc d3 fc ef ba f3 a5 f8 ba
       -0.00018683953 -0.01724168 -0.00183096 -0.0018970355
000370 77 e1 d5 bb f3 1b 9a bc 1c 2f 4b bc f3 a3 84 bc
       -0.0065271216 -0.018812155 -0.0124013685 -0.016191458
000380 62 55 3f bc 8d cc 68 3c 14 bd c1 bb 9d 4a 73 bc
       -0.011678072 0.014208925 -0.0059124324 -0.014849332
000390 2c 98 00 bc 95 30 04 bc b7 9d 4f bc 23 b3 55 3b
       -0.007848781 -0.0080682235 -0.0126718795 0.0032607995
0003a0 2e 00 aa 3c 13 a3 32 3c c5 de 4b bc 9e 7a 1b bc
       0.020752039 0.010903138 -0.012443249 -0.009489683
0003b0 e2 a0 0a bd 54 dd 27 bc 7f 03 35 bb 88 5c a3 ba
       -0.033844836 -0.01024564 -0.0027620492 -0.001246349
0003c0 6b c2 93 bc 9f 94 39 3c 7c 41 c2 3b 45 aa 7f 3a
       -0.018037042 0.011326938 0.0059282165 0.000975285
0003d0 21 53 cf bc 37 c0 ec 3c f0 a0 1d 3c 9e 18 0f 3c
       -0.025308194 0.028900249 0.00962089 0.008733897
0003e0 7c d1 4d 3c 93 4c 8b 3c c0 27 bc 3b d0 5f 7e bc
       0.012562152 0.017004287 0.0057420433 -0.015525773
0003f0 90 1b 66 3c 95 d9 42 bc 60 5a a2 3a ad b3 93 bb
       0.014044657 -0.011892696 0.0012386553 -0.004507503

hidden_layers.1.bias f4 [4]
000000 8f e4 5a bc 6e 06 af 3c 56 a1 6a bb d3 b0 51 bb
       -0.013360157 0.02136537 -0.003580173 -0.0031996265
